…
result_dir='./AttentionGAN/AttentionGAN_v1_multi//stargan_celeba_256/results_test', 
log_step=10, 
sample_step=1000, 
model_save_step=5000, 
lr_update_step=1000, 
data_path='./data/img_align_celeba', 
attr_path='./data/list_attr_celeba.txt', 
img_size=256, 
num_test=10, 
gpu=1, 
universal=1, 
log_dir='./attentiongan/attentiongan/logs', sample_dir='./attentiongan/attentiongan/samples'))

experiment dir is created
experiment config is saved
----------------------------------------------------------------
        Layer (type)               Output Shape         Param #
================================================================
            Conv2d-1          [4, 64, 128, 128]           3,072
       BatchNorm2d-2          [4, 64, 128, 128]             128
         LeakyReLU-3          [4, 64, 128, 128]               0
       Conv2dBlock-4          [4, 64, 128, 128]               0
            Conv2d-5           [4, 128, 64, 64]         131,072
       BatchNorm2d-6           [4, 128, 64, 64]             256
         LeakyReLU-7           [4, 128, 64, 64]               0
       Conv2dBlock-8           [4, 128, 64, 64]               0
            Conv2d-9           [4, 256, 32, 32]         524,288
      BatchNorm2d-10           [4, 256, 32, 32]             512
        LeakyReLU-11           [4, 256, 32, 32]               0
      Conv2dBlock-12           [4, 256, 32, 32]               0
           Conv2d-13           [4, 512, 16, 16]       2,097,152
      BatchNorm2d-14           [4, 512, 16, 16]           1,024
        LeakyReLU-15           [4, 512, 16, 16]               0
      Conv2dBlock-16           [4, 512, 16, 16]               0
           Conv2d-17            [4, 1024, 8, 8]       8,388,608
      BatchNorm2d-18            [4, 1024, 8, 8]           2,048
        LeakyReLU-19            [4, 1024, 8, 8]               0
      Conv2dBlock-20            [4, 1024, 8, 8]               0
  ConvTranspose2d-21          [4, 1024, 16, 16]      16,990,208
      BatchNorm2d-22          [4, 1024, 16, 16]           2,048
             ReLU-23          [4, 1024, 16, 16]               0
ConvTranspose2dBlock-24          [4, 1024, 16, 16]               0
  ConvTranspose2d-25           [4, 512, 32, 32]      12,582,912
      BatchNorm2d-26           [4, 512, 32, 32]           1,024
             ReLU-27           [4, 512, 32, 32]               0
ConvTranspose2dBlock-28           [4, 512, 32, 32]               0
  ConvTranspose2d-29           [4, 256, 64, 64]       2,097,152
      BatchNorm2d-30           [4, 256, 64, 64]             512
             ReLU-31           [4, 256, 64, 64]               0
ConvTranspose2dBlock-32           [4, 256, 64, 64]               0
  ConvTranspose2d-33         [4, 128, 128, 128]         524,288
      BatchNorm2d-34         [4, 128, 128, 128]             256
             ReLU-35         [4, 128, 128, 128]               0
ConvTranspose2dBlock-36         [4, 128, 128, 128]               0
  ConvTranspose2d-37           [4, 3, 256, 256]           6,147
             Tanh-38           [4, 3, 256, 256]               0
ConvTranspose2dBlock-39           [4, 3, 256, 256]               0
================================================================
Total params: 43,352,707
Trainable params: 43,352,707
Non-trainable params: 0
----------------------------------------------------------------
Input size (MB): 39.00
Forward/backward pass size (MB): 746.00
Params size (MB): 165.38
Estimated Total Size (MB): 950.38
----------------------------------------------------------------
----------------------------------------------------------------
        Layer (type)               Output Shape         Param #
================================================================
            Conv2d-1          [4, 64, 128, 128]           3,072
    InstanceNorm2d-2          [4, 64, 128, 128]             128
         LeakyReLU-3          [4, 64, 128, 128]               0
       Conv2dBlock-4          [4, 64, 128, 128]               0
            Conv2d-5           [4, 128, 64, 64]         131,072
    InstanceNorm2d-6           [4, 128, 64, 64]             256
         LeakyReLU-7           [4, 128, 64, 64]               0
       Conv2dBlock-8           [4, 128, 64, 64]               0
            Conv2d-9           [4, 256, 32, 32]         524,288
   InstanceNorm2d-10           [4, 256, 32, 32]             512
        LeakyReLU-11           [4, 256, 32, 32]               0
      Conv2dBlock-12           [4, 256, 32, 32]               0
           Conv2d-13           [4, 512, 16, 16]       2,097,152
   InstanceNorm2d-14           [4, 512, 16, 16]           1,024
        LeakyReLU-15           [4, 512, 16, 16]               0
      Conv2dBlock-16           [4, 512, 16, 16]               0
           Conv2d-17            [4, 1024, 8, 8]       8,388,608
   InstanceNorm2d-18            [4, 1024, 8, 8]           2,048
        LeakyReLU-19            [4, 1024, 8, 8]               0
      Conv2dBlock-20            [4, 1024, 8, 8]               0
           Linear-21                  [4, 1024]      67,109,888
             ReLU-22                  [4, 1024]               0
      LinearBlock-23                  [4, 1024]               0
           Linear-24                     [4, 1]           1,025
      LinearBlock-25                     [4, 1]               0
           Linear-26                  [4, 1024]      67,109,888
             ReLU-27                  [4, 1024]               0
      LinearBlock-28                  [4, 1024]               0
           Linear-29                    [4, 13]          13,325
      LinearBlock-30                    [4, 13]               0
================================================================
Total params: 145,382,286
Trainable params: 145,382,286
Non-trainable params: 0
----------------------------------------------------------------
Input size (MB): 3.00
Forward/backward pass size (MB): 248.19
Params size (MB): 554.59
Estimated Total Size (MB): 805.78
----------------------------------------------------------------

Find model of latest epoch: .\AttGAN\output\256_shortcut1_inject0_none\checkpoint\weights.199.pth
…
